…
      "outputs": [
        {
          "output_type": "stream",
          "text": [
            "data\t\tenvironment.yml  model.py   requirements.txt  Tests  trainer.py\n",
            "datahandler.py\tLICENSE.md\t README.md  segdataset.py     Tiles\n"
          ],
          "name": "stdout"
        },
        {
          "output_type": "execute_result",
          "data": {
            "text/plain": [
              "DeepLabV3Plus(\n",
              "  (encoder): MobileNetV2Encoder(\n",
              "    (features): Sequential(\n",
              "      (0): ConvBNActivation(\n",
              "        (0): Conv2d(3, 32, kernel_size=(3, 3), stride=(2, 2), padding=(1, 1), bias=False)\n",
              "        (1): BatchNorm2d(32, eps=1e-05, momentum=0.1, affine=True, track_running_stats=True)\n",
              "        (2): ReLU6(inplace=True)\n",
              "      )\n",
              "      (1): InvertedResidual(\n",
              "        (conv): Sequential(\n",
              "          (0): ConvBNActivation(\n",
              "            (0): Conv2d(32, 32, kernel_size=(3, 3), stride=(1, 1), padding=(1, 1), groups=32, bias=False)\n",
              "            (1): BatchNorm2d(32, eps=1e-05, momentum=0.1, affine=True, track_running_stats=True)\n",
              "            (2): ReLU6(inplace=True)\n",
              "          )\n",
              "          (1): Conv2d(32, 16, kernel_size=(1, 1), stride=(1, 1), bias=False)\n",
              "          (2): BatchNorm2d(16, eps=1e-05, momentum=0.1, affine=True, track_running_stats=True)\n",
              "        )\n",
              "      )\n",
              "      (2): InvertedResidual(\n",
              "        (conv): Sequential(\n",
              "          (0): ConvBNActivation(\n",
              "            (0): Conv2d(16, 96, kernel_size=(1, 1), stride=(1, 1), bias=False)\n",
              "            (1): BatchNorm2d(96, eps=1e-05, momentum=0.1, affine=True, track_running_stats=True)\n",
              "            (2): ReLU6(inplace=True)\n",
              "          )\n",
              "          (1): ConvBNActivation(\n",
              "            (0): Conv2d(96, 96, kernel_size=(3, 3), stride=(2, 2), padding=(1, 1), groups=96, bias=False)\n",
              "            (1): BatchNorm2d(96, eps=1e-05, momentum=0.1, affine=True, track_running_stats=True)\n",
              "            (2): ReLU6(inplace=True)\n",
              "          )\n",
              "          (2): Conv2d(96, 24, kernel_size=(1, 1), stride=(1, 1), bias=False)\n",
              "          (3): BatchNorm2d(24, eps=1e-05, momentum=0.1, affine=True, track_running_stats=True)\n",
              "        )\n",
              "      )\n",
              "      (3): InvertedResidual(\n",
              "        (conv): Sequential(\n",
              "          (0): ConvBNActivation(\n",
              "            (0): Conv2d(24, 144, kernel_size=(1, 1), stride=(1, 1), bias=False)\n",
              "            (1): BatchNorm2d(144, eps=1e-05, momentum=0.1, affine=True, track_running_stats=True)\n",
              "            (2): ReLU6(inplace=True)\n",
              "          )\n",
              "          (1): ConvBNActivation(\n",
              "            (0): Conv2d(144, 144, kernel_size=(3, 3), stride=(1, 1), padding=(1, 1), groups=144, bias=False)\n",
              "            (1): BatchNorm2d(144, eps=1e-05, momentum=0.1, affine=True, track_running_stats=True)\n",
              "            (2): ReLU6(inplace=True)\n",
              "          )\n",
              "          (2): Conv2d(144, 24, kernel_size=(1, 1), stride=(1, 1), bias=False)\n",
              "          (3): BatchNorm2d(24, eps=1e-05, momentum=0.1, affine=True, track_running_stats=True)\n",
              "        )\n",
              "      )\n",
              "      (4): InvertedResidual(\n",
              "        (conv): Sequential(\n",
              "          (0): ConvBNActivation(\n",
              "            (0): Conv2d(24, 144, kernel_size=(1, 1), stride=(1, 1), bias=False)\n",
              "            (1): BatchNorm2d(144, eps=1e-05, momentum=0.1, affine=True, track_running_stats=True)\n",
              "            (2): ReLU6(inplace=True)\n",
              "          )\n",
              "          (1): ConvBNActivation(\n",
              "            (0): Conv2d(144, 144, kernel_size=(3, 3), stride=(2, 2), padding=(1, 1), groups=144, bias=False)\n",
              "            (1): BatchNorm2d(144, eps=1e-05, momentum=0.1, affine=True, track_running_stats=True)\n",
              "            (2): ReLU6(inplace=True)\n",
              "          )\n",
              "          (2): Conv2d(144, 32, kernel_size=(1, 1), stride=(1, 1), bias=False)\n",
              "          (3): BatchNorm2d(32, eps=1e-05, momentum=0.1, affine=True, track_running_stats=True)\n",
              "        )\n",
              "      )\n",
              "      (5): InvertedResidual(\n",
              "        (conv): Sequential(\n",
              "          (0): ConvBNActivation(\n",
              "            (0): Conv2d(32, 192, kernel_size=(1, 1), stride=(1, 1), bias=False)\n",
              "            (1): BatchNorm2d(192, eps=1e-05, momentum=0.1, affine=True, track_running_stats=True)\n",
              "            (2): ReLU6(inplace=True)\n",
              "          )\n",
              "          (1): ConvBNActivation(\n",
              "            (0): Conv2d(192, 192, kernel_size=(3, 3), stride=(1, 1), padding=(1, 1), groups=192, bias=False)\n",
              "            (1): BatchNorm2d(192, eps=1e-05, momentum=0.1, affine=True, track_running_stats=True)\n",
              "            (2): ReLU6(inplace=True)\n",
              "          )\n",
              "          (2): Conv2d(192, 32, kernel_size=(1, 1), stride=(1, 1), bias=False)\n",
              "          (3): BatchNorm2d(32, eps=1e-05, momentum=0.1, affine=True, track_running_stats=True)\n",
              "        )\n",
              "      )\n",
              "      (6): InvertedResidual(\n",
              "        (conv): Sequential(\n",
              "          (0): ConvBNActivation(\n",
              "            (0): Conv2d(32, 192, kernel_size=(1, 1), stride=(1, 1), bias=False)\n",
              "            (1): BatchNorm2d(192, eps=1e-05, momentum=0.1, affine=True, track_running_stats=True)\n",
              "            (2): ReLU6(inplace=True)\n",
              "          )\n",
              "          (1): ConvBNActivation(\n",
              "            (0): Conv2d(192, 192, kernel_size=(3, 3), stride=(1, 1), padding=(1, 1), groups=192, bias=False)\n",
              "            (1): BatchNorm2d(192, eps=1e-05, momentum=0.1, affine=True, track_running_stats=True)\n",
              "            (2): ReLU6(inplace=True)\n",
              "          )\n",
              "          (2): Conv2d(192, 32, kernel_size=(1, 1), stride=(1, 1), bias=False)\n",
              "          (3): BatchNorm2d(32, eps=1e-05, momentum=0.1, affine=True, track_running_stats=True)\n",
              "        )\n",
              "      )\n",
              "      (7): InvertedResidual(\n",
              "        (conv): Sequential(\n",
              "          (0): ConvBNActivation(\n",
              "            (0): Conv2d(32, 192, kernel_size=(1, 1), stride=(1, 1), bias=False)\n",
              "            (1): BatchNorm2d(192, eps=1e-05, momentum=0.1, affine=True, track_running_stats=True)\n",
              "            (2): ReLU6(inplace=True)\n",
              "          )\n",
              "          (1): ConvBNActivation(\n",
              "            (0): Conv2d(192, 192, kernel_size=(3, 3), stride=(2, 2), padding=(1, 1), groups=192, bias=False)\n",
              "            (1): BatchNorm2d(192, eps=1e-05, momentum=0.1, affine=True, track_running_stats=True)\n",
              "            (2): ReLU6(inplace=True)\n",
              "          )\n",
              "          (2): Conv2d(192, 64, kernel_size=(1, 1), stride=(1, 1), bias=False)\n",
              "          (3): BatchNorm2d(64, eps=1e-05, momentum=0.1, affine=True, track_running_stats=True)\n",
              "        )\n",
              "      )\n",
              "      (8): InvertedResidual(\n",
              "        (conv): Sequential(\n",
              "          (0): ConvBNActivation(\n",
              "            (0): Conv2d(64, 384, kernel_size=(1, 1), stride=(1, 1), bias=False)\n",
              "            (1): BatchNorm2d(384, eps=1e-05, momentum=0.1, affine=True, track_running_stats=True)\n",
              "            (2): ReLU6(inplace=True)\n",
              "          )\n",
              "          (1): ConvBNActivation(\n",
              "            (0): Conv2d(384, 384, kernel_size=(3, 3), stride=(1, 1), padding=(1, 1), groups=384, bias=False)\n",
              "            (1): BatchNorm2d(384, eps=1e-05, momentum=0.1, affine=True, track_running_stats=True)\n",
              "            (2): ReLU6(inplace=True)\n",
              "          )\n",
              "          (2): Conv2d(384, 64, kernel_size=(1, 1), stride=(1, 1), bias=False)\n",
              "          (3): BatchNorm2d(64, eps=1e-05, momentum=0.1, affine=True, track_running_stats=True)\n",
              "        )\n",
              "      )\n",
              "      (9): InvertedResidual(\n",
              "        (conv): Sequential(\n",
              "          (0): ConvBNActivation(\n",
              "            (0): Conv2d(64, 384, kernel_size=(1, 1), stride=(1, 1), bias=False)\n",
              "            (1): BatchNorm2d(384, eps=1e-05, momentum=0.1, affine=True, track_running_stats=True)\n",
              "            (2): ReLU6(inplace=True)\n",
              "          )\n",
              "          (1): ConvBNActivation(\n",
              "            (0): Conv2d(384, 384, kernel_size=(3, 3), stride=(1, 1), padding=(1, 1), groups=384, bias=False)\n",
              "            (1): BatchNorm2d(384, eps=1e-05, momentum=0.1, affine=True, track_running_stats=True)\n",
              "            (2): ReLU6(inplace=True)\n",
              "          )\n",
              "          (2): Conv2d(384, 64, kernel_size=(1, 1), stride=(1, 1), bias=False)\n",
              "          (3): BatchNorm2d(64, eps=1e-05, momentum=0.1, affine=True, track_running_stats=True)\n",
              "        )\n",
              "      )\n",
              "      (10): InvertedResidual(\n",
              "        (conv): Sequential(\n",
              "          (0): ConvBNActivation(\n",
              "            (0): Conv2d(64, 384, kernel_size=(1, 1), stride=(1, 1), bias=False)\n",
              "            (1): BatchNorm2d(384, eps=1e-05, momentum=0.1, affine=True, track_running_stats=True)\n",
              "            (2): ReLU6(inplace=True)\n",
              "          )\n",
              "          (1): ConvBNActivation(\n",
              "            (0): Conv2d(384, 384, kernel_size=(3, 3), stride=(1, 1), padding=(1, 1), groups=384, bias=False)\n",
              "            (1): BatchNorm2d(384, eps=1e-05, momentum=0.1, affine=True, track_running_stats=True)\n",
              "            (2): ReLU6(inplace=True)\n",
              "          )\n",
              "          (2): Conv2d(384, 64, kernel_size=(1, 1), stride=(1, 1), bias=False)\n",
              "          (3): BatchNorm2d(64, eps=1e-05, momentum=0.1, affine=True, track_running_stats=True)\n",
              "        )\n",
              "      )\n",
              "      (11): InvertedResidual(\n",
              "        (conv): Sequential(\n",
              "          (0): ConvBNActivation(\n",
              "            (0): Conv2d(64, 384, kernel_size=(1, 1), stride=(1, 1), bias=False)\n",
              "            (1): BatchNorm2d(384, eps=1e-05, momentum=0.1, affine=True, track_running_stats=True)\n",
              "            (2): ReLU6(inplace=True)\n",
              "          )\n",
              "          (1): ConvBNActivation(\n",
              "            (0): Conv2d(384, 384, kernel_size=(3, 3), stride=(1, 1), padding=(1, 1), groups=384, bias=False)\n",
              "            (1): BatchNorm2d(384, eps=1e-05, momentum=0.1, affine=True, track_running_stats=True)\n",
              "            (2): ReLU6(inplace=True)\n",
              "          )\n",
              "          (2): Conv2d(384, 96, kernel_size=(1, 1), stride=(1, 1), bias=False)\n",
              "          (3): BatchNorm2d(96, eps=1e-05, momentum=0.1, affine=True, track_running_stats=True)\n",
              "        )\n",
              "      )\n",
              "      (12): InvertedResidual(\n",
              "        (conv): Sequential(\n",
              "          (0): ConvBNActivation(\n",
              "            (0): Conv2d(96, 576, kernel_size=(1, 1), stride=(1, 1), bias=False)\n",
              "            (1): BatchNorm2d(576, eps=1e-05, momentum=0.1, affine=True, track_running_stats=True)\n",
              "            (2): ReLU6(inplace=True)\n",
              "          )\n",
              "          (1): ConvBNActivation(\n",
              "            (0): Conv2d(576, 576, kernel_size=(3, 3), stride=(1, 1), padding=(1, 1), groups=576, bias=False)\n",
              "            (1): BatchNorm2d(576, eps=1e-05, momentum=0.1, affine=True, track_running_stats=True)\n",
              "            (2): ReLU6(inplace=True)\n",
              "          )\n",
              "          (2): Conv2d(576, 96, kernel_size=(1, 1), stride=(1, 1), bias=False)\n",
              "          (3): BatchNorm2d(96, eps=1e-05, momentum=0.1, affine=True, track_running_stats=True)\n",
              "        )\n",
              "      )\n",
              "      (13): InvertedResidual(\n",
              "        (conv): Sequential(\n",
              "          (0): ConvBNActivation(\n",
              "            (0): Conv2d(96, 576, kernel_size=(1, 1), stride=(1, 1), bias=False)\n",
              "            (1): BatchNorm2d(576, eps=1e-05, momentum=0.1, affine=True, track_running_stats=True)\n",
              "            (2): ReLU6(inplace=True)\n",
              "          )\n",
              "          (1): ConvBNActivation(\n",
              "            (0): Conv2d(576, 576, kernel_size=(3, 3), stride=(1, 1), padding=(1, 1), groups=576, bias=False)\n",
              "            (1): BatchNorm2d(576, eps=1e-05, momentum=0.1, affine=True, track_running_stats=True)\n",
              "            (2): ReLU6(inplace=True)\n",
              "          )\n",
              "          (2): Conv2d(576, 96, kernel_size=(1, 1), stride=(1, 1), bias=False)\n",
              "          (3): BatchNorm2d(96, eps=1e-05, momentum=0.1, affine=True, track_running_stats=True)\n",
              "        )\n",
              "      )\n",
              "      (14): InvertedResidual(\n",
              "        (conv): Sequential(\n",
              "          (0): ConvBNActivation(\n",
              "            (0): Conv2d(96, 576, kernel_size=(1, 1), stride=(1, 1), dilation=(2, 2), bias=False)\n",
              "            (1): BatchNorm2d(576, eps=1e-05, momentum=0.1, affine=True, track_running_stats=True)\n",
              "            (2): ReLU6(inplace=True)\n",
              "          )\n",
              "          (1): ConvBNActivation(\n",
              "            (0): Conv2d(576, 576, kernel_size=(3, 3), stride=(1, 1), padding=(2, 2), dilation=(2, 2), groups=576, bias=False)\n",
              "            (1): BatchNorm2d(576, eps=1e-05, momentum=0.1, affine=True, track_running_stats=True)\n",
              "            (2): ReLU6(inplace=True)\n",
              "          )\n",
              "          (2): Conv2d(576, 160, kernel_size=(1, 1), stride=(1, 1), dilation=(2, 2), bias=False)\n",
              "          (3): BatchNorm2d(160, eps=1e-05, momentum=0.1, affine=True, track_running_stats=True)\n",
              "        )\n",
              "      )\n",
              "      (15): InvertedResidual(\n",
              "        (conv): Sequential(\n",
              "          (0): ConvBNActivation(\n",
              "            (0): Conv2d(160, 960, kernel_size=(1, 1), stride=(1, 1), dilation=(2, 2), bias=False)\n",
              "            (1): BatchNorm2d(960, eps=1e-05, momentum=0.1, affine=True, track_running_stats=True)\n",
              "            (2): ReLU6(inplace=True)\n",
              "          )\n",
              "          (1): ConvBNActivation(\n",
              "            (0): Conv2d(960, 960, kernel_size=(3, 3), stride=(1, 1), padding=(2, 2), dilation=(2, 2), groups=960, bias=False)\n",
              "            (1): BatchNorm2d(960, eps=1e-05, momentum=0.1, affine=True, track_running_stats=True)\n",
              "            (2): ReLU6(inplace=True)\n",
              "          )\n",
              "          (2): Conv2d(960, 160, kernel_size=(1, 1), stride=(1, 1), dilation=(2, 2), bias=False)\n",
              "          (3): BatchNorm2d(160, eps=1e-05, momentum=0.1, affine=True, track_running_stats=True)\n",
              "        )\n",
              "      )\n",
              "      (16): InvertedResidual(\n",
              "        (conv): Sequential(\n",
              "          (0): ConvBNActivation(\n",
              "            (0): Conv2d(160, 960, kernel_size=(1, 1), stride=(1, 1), dilation=(2, 2), bias=False)\n",
              "            (1): BatchNorm2d(960, eps=1e-05, momentum=0.1, affine=True, track_running_stats=True)\n",
              "            (2): ReLU6(inplace=True)\n",
              "          )\n",
              "          (1): ConvBNActivation(\n",
              "            (0): Conv2d(960, 960, kernel_size=(3, 3), stride=(1, 1), padding=(2, 2), dilation=(2, 2), groups=960, bias=False)\n",
              "            (1): BatchNorm2d(960, eps=1e-05, momentum=0.1, affine=True, track_running_stats=True)\n",
              "            (2): ReLU6(inplace=True)\n",
              "          )\n",
              "          (2): Conv2d(960, 160, kernel_size=(1, 1), stride=(1, 1), dilation=(2, 2), bias=False)\n",
              "          (3): BatchNorm2d(160, eps=1e-05, momentum=0.1, affine=True, track_running_stats=True)\n",
              "        )\n",
              "      )\n",
              "      (17): InvertedResidual(\n",
              "        (conv): Sequential(\n",
              "          (0): ConvBNActivation(\n",
              "            (0): Conv2d(160, 960, kernel_size=(1, 1), stride=(1, 1), dilation=(2, 2), bias=False)\n",
              "            (1): BatchNorm2d(960, eps=1e-05, momentum=0.1, affine=True, track_running_stats=True)\n",
              "            (2): ReLU6(inplace=True)\n",
              "          )\n",
              "          (1): ConvBNActivation(\n",
              "            (0): Conv2d(960, 960, kernel_size=(3, 3), stride=(1, 1), padding=(2, 2), dilation=(2, 2), groups=960, bias=False)\n",
              "            (1): BatchNorm2d(960, eps=1e-05, momentum=0.1, affine=True, track_running_stats=True)\n",
              "            (2): ReLU6(inplace=True)\n",
              "          )\n",
              "          (2): Conv2d(960, 320, kernel_size=(1, 1), stride=(1, 1), dilation=(2, 2), bias=False)\n",
              "          (3): BatchNorm2d(320, eps=1e-05, momentum=0.1, affine=True, track_running_stats=True)\n",
              "        )\n",
              "      )\n",
              "      (18): ConvBNActivation(\n",
              "        (0): Conv2d(320, 1280, kernel_size=(1, 1), stride=(1, 1), dilation=(2, 2), bias=False)\n",
              "        (1): BatchNorm2d(1280, eps=1e-05, momentum=0.1, affine=True, track_running_stats=True)\n",
              "        (2): ReLU6(inplace=True)\n",
              "      )\n",
              "    )\n",
              "  )\n",
              "  (decoder): DeepLabV3PlusDecoder(\n",
              "    (aspp): Sequential(\n",
              "      (0): ASPP(\n",
              "        (convs): ModuleList(\n",
              "          (0): Sequential(\n",
              "            (0): Conv2d(1280, 256, kernel_size=(1, 1), stride=(1, 1), bias=False)\n",
              "            (1): BatchNorm2d(256, eps=1e-05, momentum=0.1, affine=True, track_running_stats=True)\n",
              "            (2): ReLU()\n",
              "          )\n",
              "          (1): ASPPSeparableConv(\n",
              "            (0): SeparableConv2d(\n",
              "              (0): Conv2d(1280, 1280, kernel_size=(3, 3), stride=(1, 1), padding=(12, 12), dilation=(12, 12), groups=1280, bias=False)\n",
              "              (1): Conv2d(1280, 256, kernel_size=(1, 1), stride=(1, 1), bias=False)\n",
              "            )\n",
              "            (1): BatchNorm2d(256, eps=1e-05, momentum=0.1, affine=True, track_running_stats=True)\n",
              "            (2): ReLU()\n",
              "          )\n",
              "          (2): ASPPSeparableConv(\n",
              "            (0): SeparableConv2d(\n",
              "              (0): Conv2d(1280, 1280, kernel_size=(3, 3), stride=(1, 1), padding=(24, 24), dilation=(24, 24), groups=1280, bias=False)\n",
              "              (1): Conv2d(1280, 256, kernel_size=(1, 1), stride=(1, 1), bias=False)\n",
              "            )\n",
              "            (1): BatchNorm2d(256, eps=1e-05, momentum=0.1, affine=True, track_running_stats=True)\n",
              "            (2): ReLU()\n",
              "          )\n",
              "          (3): ASPPSeparableConv(\n",
              "            (0): SeparableConv2d(\n",
              "              (0): Conv2d(1280, 1280, kernel_size=(3, 3), stride=(1, 1), padding=(36, 36), dilation=(36, 36), groups=1280, bias=False)\n",
              "              (1): Conv2d(1280, 256, kernel_size=(1, 1), stride=(1, 1), bias=False)\n",
              "            )\n",
              "            (1): BatchNorm2d(256, eps=1e-05, momentum=0.1, affine=True, track_running_stats=True)\n",
              "            (2): ReLU()\n",
              "          )\n",
              "          (4): ASPPPooling(\n",
              "            (0): AdaptiveAvgPool2d(output_size=1)\n",
              "            (1): Conv2d(1280, 256, kernel_size=(1, 1), stride=(1, 1), bias=False)\n",
              "            (2): BatchNorm2d(256, eps=1e-05, momentum=0.1, affine=True, track_running_stats=True)\n",
              "            (3): ReLU()\n",
              "          )\n",
              "        )\n",
              "        (project): Sequential(\n",
              "          (0): Conv2d(1280, 256, kernel_size=(1, 1), stride=(1, 1), bias=False)\n",
              "          (1): BatchNorm2d(256, eps=1e-05, momentum=0.1, affine=True, track_running_stats=True)\n",
              "          (2): ReLU()\n",
              "          (3): Dropout(p=0.5, inplace=False)\n",
              "        )\n",
              "      )\n",
              "      (1): SeparableConv2d(\n",
              "        (0): Conv2d(256, 256, kernel_size=(3, 3), stride=(1, 1), padding=(1, 1), groups=256, bias=False)\n",
              "        (1): Conv2d(256, 256, kernel_size=(1, 1), stride=(1, 1), bias=False)\n",
              "      )\n",
              "      (2): BatchNorm2d(256, eps=1e-05, momentum=0.1, affine=True, track_running_stats=True)\n",
              "      (3): ReLU()\n",
              "    )\n",
              "    (up): UpsamplingBilinear2d(scale_factor=4.0, mode=bilinear)\n",
              "    (block1): Sequential(\n",
              "      (0): Conv2d(24, 48, kernel_size=(1, 1), stride=(1, 1), bias=False)\n",
              "      (1): BatchNorm2d(48, eps=1e-05, momentum=0.1, affine=True, track_running_stats=True)\n",
              "      (2): ReLU()\n",
              "    )\n",
              "    (block2): Sequential(\n",
              "      (0): SeparableConv2d(\n",
              "        (0): Conv2d(304, 304, kernel_size=(3, 3), stride=(1, 1), padding=(1, 1), groups=304, bias=False)\n",
              "        (1): Conv2d(304, 256, kernel_size=(1, 1), stride=(1, 1), bias=False)\n",
              "      )\n",
              "      (1): BatchNorm2d(256, eps=1e-05, momentum=0.1, affine=True, track_running_stats=True)\n",
              "      (2): ReLU()\n",
              "    )\n",
              "  )\n",
              "  (segmentation_head): SegmentationHead(\n",
              "    (0): Conv2d(256, 4, kernel_size=(1, 1), stride=(1, 1))\n",
              "    (1): UpsamplingBilinear2d(scale_factor=4.0, mode=bilinear)\n",
              "    (2): Activation(\n",
              "      (activation): Identity()\n",
              "    )\n",
              "  )\n",
              ")"
            ]
          },
          "metadata": {
            "tags": []
          },
          "execution_count": 16
…
